…
rue, show_conf=True, show_labels=True, simplify=True, single_cls=False, source=None, split=val, stream_buffer=False, task=detect, time=None, tracker=botsort.yaml, translate=0.1, val=True, verbose=False, vid_stride=1, visualize=False, warmup_bias_lr=0.1, warmup_epochs=3.0, warmup_momentum=0.8, weight_decay=0.0005, workers=8, workspace=None",
    "[13:08:53] stdout> Overriding model.yaml nc=80 with nc=2",
    "[13:08:53] stdout>                    from  n    params  module                                       arguments",
    "[13:08:53] stdout>   0                  -1  1       464  ultralytics.nn.modules.conv.Conv             [3, 16, 3, 2]",
    "[13:08:53] stdout>   1                  -1  1      4672  ultralytics.nn.modules.conv.Conv             [16, 32, 3, 2]",
    "[13:08:53] stdout>   2                  -1  1      7360  ultralytics.nn.modules.block.C2f             [32, 32, 1, True]",
    "[13:08:53] stdout>   3                  -1  1     18560  ultralytics.nn.modules.conv.Conv             [32, 64, 3, 2]",
    "[13:08:53] stdout>   4                  -1  2     49664  ultralytics.nn.modules.block.C2f             [64, 64, 2, True]",
    "[13:08:53] stdout>   5                  -1  1     73984  ultralytics.nn.modules.conv.Conv             [64, 128, 3, 2]",
    "[13:08:53] stdout>   6                  -1  2    197632  ultralytics.nn.modules.block.C2f             [128, 128, 2, True]",
    "[13:08:53] stdout>   7                  -1  1    295424  ultralytics.nn.modules.conv.Conv             [128, 256, 3, 2]",
    "[13:08:53] stdout>   8                  -1  1    460288  ultralytics.nn.modules.block.C2f             [256, 256, 1, True]",
    "[13:08:53] stdout>   9                  -1  1    164608  ultralytics.nn.modules.block.SPPF            [256, 256, 5]",
    "[13:08:53] stdout>  10                  -1  1         0  torch.nn.modules.upsampling.Upsample         [None, 2, 'nearest']",
    "[13:08:53] stdout>  11             [-1, 6]  1         0  ultralytics.nn.modules.conv.Concat           [1]",
    "[13:08:53] stdout>  12                  -1  1    148224  ultralytics.nn.modules.block.C2f             [384, 128, 1]",
    "[13:08:53] stdout>  13                  -1  1         0  torch.nn.modules.upsampling.Upsample         [None, 2, 'nearest']",
    "[13:08:53] stdout>  14             [-1, 4]  1         0  ultralytics.nn.modules.conv.Concat           [1]",
    "[13:08:53] stdout>  15                  -1  1     37248  ultralytics.nn.modules.block.C2f             [192, 64, 1]",
    "[13:08:53] stdout>  16                  -1  1     36992  ultralytics.nn.modules.conv.Conv             [64, 64, 3, 2]",
    "[13:08:53] stdout>  17            [-1, 12]  1         0  ultralytics.nn.modules.conv.Concat           [1]",
    "[13:08:53] stdout>  18                  -1  1    123648  ultralytics.nn.modules.block.C2f             [192, 128, 1]",
    "[13:08:53] stdout>  19                  -1  1    147712  ultralytics.nn.modules.conv.Conv             [128, 128, 3, 2]",
    "[13:08:53] stdout>  20             [-1, 9]  1         0  ultralytics.nn.modules.conv.Concat           [1]",
    "[13:08:53] stdout>  21                  -1  1    493056  ultralytics.nn.modules.block.C2f             [384, 256, 1]",
    "[13:08:53] stdout>  22        [15, 18, 21]  1    751702  ultralytics.nn.modules.head.Detect           [2, 16, None, [64, 128, 256]]",
    "[13:08:53] stdout> Model summary: 130 layers, 3,011,238 parameters, 3,011,222 gradients, 8.2 GFLOPs",
    "[13:08:53] stdout> Transferred 319/355 items from pretrained weights",
    "[13:08:53] stdout> Freezing layer 'model.22.dfl.conv.weight'",
    "[13:08:53] stdout> \u001b[34m\u001b[1mtrain: \u001b[0mFast image access  (ping: 0.20.1 ms, read: 83.217.2 MB/s, size: 45.2 KB)",
…
rue, show_conf=True, show_labels=True, simplify=True, single_cls=False, source=None, split=val, stream_buffer=False, task=detect, time=None, tracker=botsort.yaml, translate=0.1, val=True, verbose=False, vid_stride=1, visualize=False, warmup_bias_lr=0.1, warmup_epochs=3.0, warmup_momentum=0.8, weight_decay=0.0005, workers=8, workspace=None",
    "[13:29:49] stdout> Overriding model.yaml nc=80 with nc=2",
    "[13:29:49] stdout>                    from  n    params  module                                       arguments",
    "[13:29:49] stdout>   0                  -1  1       464  ultralytics.nn.modules.conv.Conv             [3, 16, 3, 2]",
    "[13:29:49] stdout>   1                  -1  1      4672  ultralytics.nn.modules.conv.Conv             [16, 32, 3, 2]",
    "[13:29:49] stdout>   2                  -1  1      6640  ultralytics.nn.modules.block.C3k2            [32, 64, 1, False, 0.25]",
    "[13:29:49] stdout>   3                  -1  1     36992  ultralytics.nn.modules.conv.Conv             [64, 64, 3, 2]",
    "[13:29:49] stdout>   4                  -1  1     26080  ultralytics.nn.modules.block.C3k2            [64, 128, 1, False, 0.25]",
    "[13:29:49] stdout>   5                  -1  1    147712  ultralytics.nn.modules.conv.Conv             [128, 128, 3, 2]",
    "[13:29:49] stdout>   6                  -1  1     87040  ultralytics.nn.modules.block.C3k2            [128, 128, 1, True]",
    "[13:29:49] stdout>   7                  -1  1    295424  ultralytics.nn.modules.conv.Conv             [128, 256, 3, 2]",
    "[13:29:49] stdout>   8                  -1  1    346112  ultralytics.nn.modules.block.C3k2            [256, 256, 1, True]",
    "[13:29:49] stdout>   9                  -1  1    164608  ultralytics.nn.modules.block.SPPF            [256, 256, 5]",
    "[13:29:49] stdout>  10                  -1  1    249728  ultralytics.nn.modules.block.C2PSA           [256, 256, 1]",
    "[13:29:49] stdout>  11                  -1  1         0  torch.nn.modules.upsampling.Upsample         [None, 2, 'nearest']",
    "[13:29:49] stdout>  12             [-1, 6]  1         0  ultralytics.nn.modules.conv.Concat           [1]",
    "[13:29:49] stdout>  13                  -1  1    111296  ultralytics.nn.modules.block.C3k2            [384, 128, 1, False]",
    "[13:29:49] stdout>  14                  -1  1         0  torch.nn.modules.upsampling.Upsample         [None, 2, 'nearest']",
    "[13:29:49] stdout>  15             [-1, 4]  1         0  ultralytics.nn.modules.conv.Concat           [1]",
    "[13:29:49] stdout>  16                  -1  1     32096  ultralytics.nn.modules.block.C3k2            [256, 64, 1, False]",
    "[13:29:49] stdout>  17                  -1  1     36992  ultralytics.nn.modules.conv.Conv             [64, 64, 3, 2]",
    "[13:29:49] stdout>  18            [-1, 13]  1         0  ultralytics.nn.modules.conv.Concat           [1]",
    "[13:29:49] stdout>  19                  -1  1     86720  ultralytics.nn.modules.block.C3k2            [192, 128, 1, False]",
    "[13:29:49] stdout>  20                  -1  1    147712  ultralytics.nn.modules.conv.Conv             [128, 128, 3, 2]",
    "[13:29:49] stdout>  21            [-1, 10]  1         0  ultralytics.nn.modules.conv.Concat           [1]",
    "[13:29:49] stdout>  22                  -1  1    378880  ultralytics.nn.modules.block.C3k2            [384, 256, 1, True]",
    "[13:29:49] stdout>  23        [16, 19, 22]  1    431062  ultralytics.nn.modules.head.Detect           [2, 16, None, [64, 128, 256]]",
    "[13:29:49] stdout> YOLO11n summary: 182 layers, 2,590,230 parameters, 2,590,214 gradients, 6.4 GFLOPs",
    "[13:29:49] stdout> Freezing layer 'model.23.dfl.conv.weight'",
    "[13:29:49] stdout> \u001b[34m\u001b[1mtrain: \u001b[0mFast image access  (ping: 0.10.1 ms, read: 137.769.2 MB/s, size: 68.6 KB)",
    "[13:29:50] stdout> \u001b[34m\u001b[1mtrain: \u001b[0mC:\\Users\\fx506hf\\Downloads\\vac\\iotml\\dataset_split\\yolo_auto\\images\\train\\10386522775_4f8c616999_m.jpg: 14 duplicate labels removed",
…
