…
    "[16:49:39] stdout> \u001b[KDownloading https://ultralytics.com/assets/Arial.ttf to 'C:\\Users\\fx506hf\\AppData\\Roaming\\Ultralytics\\Arial.ttf': 91% \u2501\u2501\u2501\u2501\u2501\u2501\u2501\u2501\u2501\u2501\u2578\u2500 688.0/755.1KB 441.3KB/s 0.7s<0.2s",
    "[16:49:39] stdout> \u001b[KDownloading https://ultralytics.com/assets/Arial.ttf to 'C:\\Users\\fx506hf\\AppData\\Roaming\\Ultralytics\\Arial.ttf': 100% \u2501\u2501\u2501\u2501\u2501\u2501\u2501\u2501\u2501\u2501\u2501\u2501 755.1KB 1.0MB/s 0.7s",
    "[16:49:40] stdout> Overriding model.yaml nc=80 with nc=1",
    "[16:49:40] stdout>                    from  n    params  module                                       arguments",
    "[16:49:40] stdout>   0                  -1  1       464  ultralytics.nn.modules.conv.Conv             [3, 16, 3, 2]",
    "[16:49:40] stdout>   1                  -1  1      4672  ultralytics.nn.modules.conv.Conv             [16, 32, 3, 2]",
    "[16:49:40] stdout>   2                  -1  1      6640  ultralytics.nn.modules.block.C3k2            [32, 64, 1, False, 0.25]",
    "[16:49:40] stdout>   3                  -1  1     36992  ultralytics.nn.modules.conv.Conv             [64, 64, 3, 2]",
    "[16:49:40] stdout>   4                  -1  1     26080  ultralytics.nn.modules.block.C3k2            [64, 128, 1, False, 0.25]",
    "[16:49:40] stdout>   5                  -1  1    147712  ultralytics.nn.modules.conv.Conv             [128, 128, 3, 2]",
    "[16:49:40] stdout>   6                  -1  1     87040  ultralytics.nn.modules.block.C3k2            [128, 128, 1, True]",
    "[16:49:40] stdout>   7                  -1  1    295424  ultralytics.nn.modules.conv.Conv             [128, 256, 3, 2]",
    "[16:49:40] stdout>   8                  -1  1    346112  ultralytics.nn.modules.block.C3k2            [256, 256, 1, True]",
    "[16:49:40] stdout>   9                  -1  1    164608  ultralytics.nn.modules.block.SPPF            [256, 256, 5]",
    "[16:49:40] stdout>  10                  -1  1    249728  ultralytics.nn.modules.block.C2PSA           [256, 256, 1]",
    "[16:49:40] stdout>  11                  -1  1         0  torch.nn.modules.upsampling.Upsample         [None, 2, 'nearest']",
    "[16:49:40] stdout>  12             [-1, 6]  1         0  ultralytics.nn.modules.conv.Concat           [1]",
    "[16:49:40] stdout>  13                  -1  1    111296  ultralytics.nn.modules.block.C3k2            [384, 128, 1, False]",
    "[16:49:40] stdout>  14                  -1  1         0  torch.nn.modules.upsampling.Upsample         [None, 2, 'nearest']",
    "[16:49:40] stdout>  15             [-1, 4]  1         0  ultralytics.nn.modules.conv.Concat           [1]",
    "[16:49:40] stdout>  16                  -1  1     32096  ultralytics.nn.modules.block.C3k2            [256, 64, 1, False]",
    "[16:49:40] stdout>  17                  -1  1     36992  ultralytics.nn.modules.conv.Conv             [64, 64, 3, 2]",
    "[16:49:40] stdout>  18            [-1, 13]  1         0  ultralytics.nn.modules.conv.Concat           [1]",
    "[16:49:40] stdout>  19                  -1  1     86720  ultralytics.nn.modules.block.C3k2            [192, 128, 1, False]",
    "[16:49:40] stdout>  20                  -1  1    147712  ultralytics.nn.modules.conv.Conv             [128, 128, 3, 2]",
    "[16:49:40] stdout>  21            [-1, 10]  1         0  ultralytics.nn.modules.conv.Concat           [1]",
    "[16:49:40] stdout>  22                  -1  1    378880  ultralytics.nn.modules.block.C3k2            [384, 256, 1, True]",
    "[16:49:40] stdout>  23        [16, 19, 22]  1    430867  ultralytics.nn.modules.head.Detect           [1, 16, None, [64, 128, 256]]",
    "[16:49:40] stdout> YOLO11n summary: 182 layers, 2,590,035 parameters, 2,590,019 gradients, 6.4 GFLOPs",
    "[16:49:40] stdout> Freezing layer 'model.23.dfl.conv.weight'",
    "[16:49:40] stdout> \u001b[34m\u001b[1mtrain: \u001b[0mFast image access  (ping: 0.10.0 ms, read: 223.9121.0 MB/s, size: 117.3 KB)",
    "[16:49:40] stdout> \u001b[K\u001b[34m\u001b[1mtrain: \u001b[0mScanning C:\\Users\\fx506hf\\Downloads\\vac\\iotml\\dataset_split\\yolo_auto\\labels\\train... 131 images, 0 backgrounds, 0 corrupt: 12% \u2501\u2500\u2500\u2500\u2500\u2500\u2500\u2500\u2500\u2500\u2500\u2500 131/1056 378.0it/s 0.1s<2.4s",
…
rue, show_conf=True, show_labels=True, simplify=True, single_cls=False, source=None, split=val, stream_buffer=False, task=detect, time=None, tracker=botsort.yaml, translate=0.1, val=True, verbose=False, vid_stride=1, visualize=False, warmup_bias_lr=0.1, warmup_epochs=3.0, warmup_momentum=0.8, weight_decay=0.0005, workers=8, workspace=None",
    "[17:45:18] stdout> Overriding model.yaml nc=80 with nc=4",
    "[17:45:18] stdout>                    from  n    params  module                                       arguments",
    "[17:45:18] stdout>   0                  -1  1       464  ultralytics.nn.modules.conv.Conv             [3, 16, 3, 2]",
    "[17:45:18] stdout>   1                  -1  1      4672  ultralytics.nn.modules.conv.Conv             [16, 32, 3, 2]",
    "[17:45:18] stdout>   2                  -1  1      6640  ultralytics.nn.modules.block.C3k2            [32, 64, 1, False, 0.25]",
    "[17:45:18] stdout>   3                  -1  1     36992  ultralytics.nn.modules.conv.Conv             [64, 64, 3, 2]",
    "[17:45:18] stdout>   4                  -1  1     26080  ultralytics.nn.modules.block.C3k2            [64, 128, 1, False, 0.25]",
    "[17:45:18] stdout>   5                  -1  1    147712  ultralytics.nn.modules.conv.Conv             [128, 128, 3, 2]",
    "[17:45:18] stdout>   6                  -1  1     87040  ultralytics.nn.modules.block.C3k2            [128, 128, 1, True]",
    "[17:45:18] stdout>   7                  -1  1    295424  ultralytics.nn.modules.conv.Conv             [128, 256, 3, 2]",
    "[17:45:18] stdout>   8                  -1  1    346112  ultralytics.nn.modules.block.C3k2            [256, 256, 1, True]",
    "[17:45:18] stdout>   9                  -1  1    164608  ultralytics.nn.modules.block.SPPF            [256, 256, 5]",
    "[17:45:18] stdout>  10                  -1  1    249728  ultralytics.nn.modules.block.C2PSA           [256, 256, 1]",
    "[17:45:18] stdout>  11                  -1  1         0  torch.nn.modules.upsampling.Upsample         [None, 2, 'nearest']",
    "[17:45:18] stdout>  12             [-1, 6]  1         0  ultralytics.nn.modules.conv.Concat           [1]",
    "[17:45:18] stdout>  13                  -1  1    111296  ultralytics.nn.modules.block.C3k2            [384, 128, 1, False]",
    "[17:45:18] stdout>  14                  -1  1         0  torch.nn.modules.upsampling.Upsample         [None, 2, 'nearest']",
    "[17:45:18] stdout>  15             [-1, 4]  1         0  ultralytics.nn.modules.conv.Concat           [1]",
    "[17:45:18] stdout>  16                  -1  1     32096  ultralytics.nn.modules.block.C3k2            [256, 64, 1, False]",
    "[17:45:18] stdout>  17                  -1  1     36992  ultralytics.nn.modules.conv.Conv             [64, 64, 3, 2]",
    "[17:45:18] stdout>  18            [-1, 13]  1         0  ultralytics.nn.modules.conv.Concat           [1]",
    "[17:45:18] stdout>  19                  -1  1     86720  ultralytics.nn.modules.block.C3k2            [192, 128, 1, False]",
    "[17:45:18] stdout>  20                  -1  1    147712  ultralytics.nn.modules.conv.Conv             [128, 128, 3, 2]",
    "[17:45:18] stdout>  21            [-1, 10]  1         0  ultralytics.nn.modules.conv.Concat           [1]",
    "[17:45:18] stdout>  22                  -1  1    378880  ultralytics.nn.modules.block.C3k2            [384, 256, 1, True]",
    "[17:45:18] stdout>  23        [16, 19, 22]  1    431452  ultralytics.nn.modules.head.Detect           [4, 16, None, [64, 128, 256]]",
    "[17:45:19] stdout> YOLO11n summary: 182 layers, 2,590,620 parameters, 2,590,604 gradients, 6.4 GFLOPs",
    "[17:45:19] stdout> Freezing layer 'model.23.dfl.conv.weight'",
    "[17:45:19] stdout> \u001b[34m\u001b[1mtrain: \u001b[0mFast image access  (ping: 0.10.1 ms, read: 144.679.5 MB/s, size: 68.6 KB)",
    "[17:45:20] stdout> \u001b[34m\u001b[1mtrain: \u001b[0mNew cache created: C:\\Users\\fx506hf\\Downloads\\vac\\iotml\\dataset_split\\yolo_auto\\labels\\train.cache",
…
